checkpoint.pth (torch_old, 54567 bytes, 6 tensors)

fc.0.weight f4 [128, 37]
0.021587146 0.0046279076 -0.07532869 -0.2277598 -0.089226566 0.123295 -0.15859604 -0.0687318
-0.016169736 -0.1764103 -0.086273044 -0.2019663 -0.09739367 0.03221854 -0.5345442 0.041946404
-0.08817013 -0.07563156 0.06517836 -0.14542656 0.06558856 0.099026985 -0.15829906 0.17394806
-0.31248143 0.07400688 0.14820018 -0.41917843 -0.024215594 0.1765711 -0.105677776 0.09584302
-0.30803826 0.16394077 -0.40058282 -0.0033092846 -0.10233964 0.20105179 0.0008418226 0.1033742
0.10573211 0.027829291 0.0052584135 -0.24022238 -0.11178772 -0.030678434 0.08269009 0.049760472
0.012645975 -0.10353734 0.1096016 0.054103326 0.35490447 -0.16367045 -0.12871033 -0.16546448
-1.2220904 -0.14863433 -0.07994608 -0.08467983 0.061685294 0.09902839 0.013400506 0.11967175
-0.0928357 -0.1271201 -0.29092678 0.027740337 0.08544232 0.13622963 0.08461025 0.09156246
0.006682734 0.0030389298 0.1664813 0.30693185 0.010948299 -0.33610308 -0.17668608 -0.059731375
-0.17018159 0.23279989 0.04192464 -0.21676347 0.010571435 0.03315415 0.06828077 -0.2309635
-0.36069456 -0.2683884 0.2421134 0.10866093 0.1665773 -0.064934276 -0.07168903 -0.06364581
0.23611371 -0.3790947 -0.31050956 -0.32134724 0.03373081 0.3605567 -0.30967623 -0.04509204
-0.49222657 0.17782994 0.041655503 -0.2297278 -0.17344472 -0.041096356 -0.030605294 0.08661837
-0.058582205 0.07245631 0.06861373 -0.067411914 -0.023615599 0.14260474 -0.043503437 -0.09681765
-0.028247343 0.09581306 -0.099192776 -0.07492033 -0.07525251 -0.25337225 0.13354504 -0.24658868
-0.1340011 -0.15448508 0.1464773 -0.08864057 -0.057589307 0.14087416 0.09622732 -0.042876367
0.035143413 -0.38116547 0.02000296 0.14743307 0.21047388 0.16053298 0.16937104 -0.0071247946
-0.407826 -0.32232183 0.038543057 -0.014000426 -0.026471956 -0.15750358 -0.34682518 -0.03270538
0.098851345 -0.15224858 0.01581283 0.025512936 -0.01985041 -1.051739 -0.16023771 -0.63550854
0.083898745 -0.13857982 0.05330343 -0.05335215 -0.0049083903 -0.12157695 -0.37473255 0.13016954
-0.3242705 -0.16376987 0.17130744 0.0730263 -1.3424755 0.09942052 -0.57634354 0.11834846
-0.2569199 -0.16665204 -0.22082126 -0.27743655 0.21196055 -0.42389864 -0.47161657 -0.06506453
0.011623939 -0.05899673 -0.0059006102 0.0073876777 -0.009689215 -0.013880855 -0.0281046 0.26635307
0.14113456 0.09886548 -0.11806092 -0.04883309 -0.02445492 -0.05722436 -0.13163342 0.066622764
-0.101892196 0.08799316 -0.007871243 -0.03534063 -0.02942506 0.08393595 0.019011952 0.2421239
-0.061906148 0.09042796 -0.14122032 0.014657466 0.14677586 0.06973512 0.10637503 0.29554012
-0.33168057 -0.36628225 -0.2247002 -1.970848 0.048610393 0.022351561 0.007727617 0.07712111
-0.07569689 0.043853365 -0.10426968 0.026179917 -0.20184243 -0.012045428 0.16716936 0.23306026
0.074327335 0.12184677 0.18700328 -0.018642316 0.12745482 -0.07176085 -0.13577881 0.08443911
0.10578714 0.19643345 -0.032358196 0.031744216 0.091972075 -0.024390982 0.0014651262 -0.17870307
0.053694904 -0.08504932 0.059254196 0.07800918 0.35875052 -0.267723 -0.36657605 -0.36694708
00000000: 87d7 b03c b4a5 973b ee45 9abd dd39 69be
00000010: 6bbc b6bd 1782 fc3d 0067 22be 42c3 8cbd
00000020: 6576 84bc e7a4 34be ecaf b0bd 41d0 4ebe
00000030: 5576 c7bd 96f7 033d e4d7 08bf fecf 2b3d
00000040: 8b92 b4bd b8e4 9abd 3b7c 853d b3ea 14be
00000050: 4c53 863d a9ce ca3d 2619 22be 711f 323e
00000060: 91fd 9fbe eb90 973d cac1 173e 8e9e d6be
00000070: c85f c6bc 0ecf 343e 976d d8bd 5849 c43d
00000080: 31b7 9dbe 17e0 273e 3119 cdbe 95e0 58bb
00000090: 7297 d1bd 85e0 4d3e c2ad 5c3a dab5 d33d
000000a0: 148a d83d 41fa e33c c54e ac3b dbfc 75be
000000b0: f6f0 e4bd 5751 fbbc 6c59 a93d a3d1 4b3d
000000c0: 1031 4f3c 630b d4bd ce76 e03d 739b 5d3d
000000d0: 0ab6 b53e 3a99 27be a4cc 03be 856f 29be
000000e0: 756d 9cbf 9933 18be c5ba a3bd 9e6c adbd
000000f0: b8a9 7c3d 66cf ca3d cc8d 5b3c 7616 f53d
00000100: a520 bebd c62b 02be 5bf4 94be b43f e33c
00000110: 62fc ae3d c87f 0b3e 2448 ad3d 1985 bb3d
00000120: d6fa da3b c828 473b 137a 2a3e 2c26 9d3e
00000130: 7f60 333c b415 acbe 32ed 34be e3a8 74bd
00000140: 1544 2ebe 1863 6e3e 2cb9 2b3d 3ef7 5dbe
00000150: d033 2d3c a5cc 073d cad6 8b3d b281 6cbe
00000160: f5ac b8be 346a 89be 93ec 773e 9f89 de3d
00000170: 3d93 2a3e 43fc 84bd b3d1 92bd bc58 82bd
00000180: cbc7 713e b318 c2be 1cfb 9ebe a087 a4be
00000190: 5129 0a3d e39a b83e e28d 9ebe 6eb2 38bd
000001a0: 1f05 fcbe 0d19 363e f69e 2a3d c43d 6bbe
000001b0: 7e9b 31be a754 28bd f4b7 fabc f964 b13d
000001c0: e5f3 6fbd f963 943d 5b85 8c3d 420f 8abd
000001d0: 8075 c1bc fa06 123e a930 32bd 5548 c6bd
000001e0: f966 e7bc a339 c43d 9525 cbbd d46f 99bd
000001f0: fd1d 9abd 02ba 81be 08c0 083e be81 7cbe
00000200: 9637 09be 5631 1ebe 25fe 153e 3089 b5bd
00000210: c4e2 6bbd 5141 103e d412 c53d 219f 2fbd
00000220: 8af2 0f3d 1f28 c3be 3fdd a33c b2f8 163e
00000230: 7786 573e c262 243e 9a6f 2d3e 1c77 e9bb
00000240: 92ce d0be 5e07 a5be 53df 1d3d 0b62 65bc
00000250: b7db d8bc 9e48 21be 1293 b1be 14f6 05bd
00000260: 9372 ca3d 0de7 1bbe e889 813c 8100 d13c
00000270: 549d a2bc 629f 86bf 5b15 24be b0b0 22bf
00000280: 1bd3 ab3d dee7 0dbe b354 5a3d c987 5abd
00000290: 90d6 a0bb 56fd f8bd f2dc bfbe 2a4b 053e
000002a0: c806 a6be 4ab3 27be 386b 2f3e d08e 953d
000002b0: 3dd6 abbf fc9c cb3d 408b 13bf ad60 f23d
000002c0: 018b 83be d5a6 2abe f81e 62be 2a0c 8ebe
000002d0: 300c 593e 3e09 d9be ba77 f1be 8d40 85bd
000002e0: 5572 3e3c 8ea6 71bd e859 c1bb 5514 f23b
000002f0: 83bf 1ebc 876c 63bc 9e3b e6bc 6e5f 883e
00000300: 9485 103e fc79 ca3d ecc9 f1bd 3505 48bd
00000310: af55 c8bc 1764 6abd e9ca 06be 8471 883d
00000320: dbac d0bd c235 b43d 63f6 00bc 56c1 10bd
00000330: d30c f1bc 9de6 ab3d f4be 9b3c 54ef 773e
00000340: 4d91 7dbd 4b32 b93d 0f9c 10be de25 703c
00000350: 694c 163e 49d1 8e3d 27db d93d 0951 973e
00000360: 09d2 a9be 5989 bbbe cf17 66be bf44 fcbf
00000370: b11b 473d 9f1a b73c f337 fd3b acf1 9d3d
00000380: f906 9bbd 969f 333d 588b d5bd 4477 d63c
00000390: c8af 4ebe 305a 45bc 722e 2b3e 59a7 6e3e
000003a0: ee38 983d cd8a f93d ca7d 3f3e c5b7 98bc
000003b0: 8483 023e 5af7 92bd 9a09 0bbe 69ee ac3d
000003c0: eea6 d83d da25 493e 078a 04bd 3906 023d
000003d0: db5b bc3d 99cf c7bc 7a09 c03a f0fd 36be
000003e0: 30ef 5b3d 562e aebd 87b4 723d 47c3 9f3d
000003f0: 26ae b73e fd12 89be dbaf bbbe 7de0 bbbe

fc.0.bias f4 [128]
-0.032349765 0.0645795 -0.0011752741 -0.06488896 -0.053228665 -0.07744143 0.09070019 0.0012378781
-0.114836924 0.011149627 -0.03607238 -0.041079972 -0.07872836 -0.05058468 -0.11772761 -0.03473523
0.047869228 -0.0064740144 -0.056014016 -0.044025723 -0.055571932 0.08702487 0.21979062 -0.09066081
0.114571534 0.2313516 0.23976551 -0.069935806 -0.015613417 -0.12816198 0.09875828 0.018976726
-0.072209574 -0.004561075 -0.012124535 -0.18262668 0.040238637 0.08771703 0.012863201 0.02176652
0.044088237 0.15764612 0.1462068 0.106201306 -0.0010233122 -0.12142594 0.033308886 -0.0355635
-0.22827798 0.056230884 -0.10388975 0.10973766 0.08724523 0.09015026 0.11102658 0.061534308
-0.08273324 -0.0682476 0.082682215 -0.048481166 -0.18514962 -0.006885812 0.063344866 -0.120973215
0.15476243 0.046280213 0.084319994 -0.12339491 -0.22785303 -0.09297804 0.07363962 -0.037694648
0.0900617 -0.19192141 -0.13666344 -0.0014596572 0.22253819 -0.22711171 0.059083425 0.02939902
-0.03260197 -0.0024902234 0.13262449 -0.11794864 0.040144425 0.12029543 0.07926886 -0.17821753
-0.0672022 0.044674188 0.16409568 -0.07862754 -0.1567296 -0.17651938 -0.020566354 0.104096554
0.025088936 -0.20358665 -0.00284718 0.0950823 -0.12257532 -0.15962754 0.1513776 0.14801642
-0.21769574 -0.24485184 -0.12220714 0.09152852 -0.14117184 -0.053106178 0.13583794 -0.015939394
-0.12317237 0.0018249549 0.0058766636 0.18116474 0.09442733 0.13984935 0.079285234 -0.031652577
-0.08890452 -0.007633363 -0.05901652 -0.15999909 0.060735047 0.023900095 0.0803744 -0.009977158
00000000: 3081 04bd 4242 843d a80b 9aba 81e4 84bd
00000010: 4d06 5abd 9d99 9ebd 05c1 b93d 4c40 a23a
00000020: 9f2f ebbd edac 363c a2c0 13bd 7943 28bd
00000030: 563c a1bd e231 4fbd 2c1b f1bd 8746 0ebd
00000040: 8612 443d f823 d4bb f46e 65bd 5154 34bd
00000050: 659f 63bd 183a b23d cb10 613e 60ac b9bd
00000060: 7ba4 ea3d 6fe7 6c3e 1785 753e 813a 8fbd
00000070: 6bcf 7fbc e53c 03be c841 ca3d 1475 9b3c
00000080: 9de2 93bd 1275 95bb fca5 46bc 7d02 3bbe
00000090: 45d1 243d fca4 b33d 2dc0 523c b34f b23c
000000a0: de95 343d fc6d 213e 3cb7 153e 1280 d93d
000000b0: a920 86ba 2aae f8bd e66e 083d 08ab 11bd
000000c0: b4c1 69be 5b52 663d 26c4 d4bd 23be e03d
000000d0: a1ad b23d b3a0 b83d e761 e33d 660b 7c3d
000000e0: 0c70 a9bd 66c5 8bbd 4b55 a93d 3094 46bd
000000f0: dd97 3dbe 61a2 e1bb f4ba 813d cec0 f7bd
00000100: 0b7a 1e3e 5290 3d3d f6af ac3d 78b6 fcbd
00000110: 4e52 69be 456b bebd 5ed0 963d b465 1abd
00000120: 4572 b83d 0c87 44be 80f1 0bbe f851 bfba
00000130: 0de1 633e f98f 68be 7601 723d 37d6 f03c
00000140: a589 05bd 0433 23bb b7ce 073e 0e8f f1bd
00000150: 7b6e 243d 735d f63d b657 a23d a87e 36be
00000160: 4fa1 89bd 48fc 363d b308 283e 7a07 a1bd
00000170: b97d 20be 7fc1 34be c57a a8bc 9330 d53d
00000180: 5087 cd3c 0579 50be c197 3abb 82ba c23d
00000190: c508 fbbd 6775 23be bb02 1b3e 9e91 173e
000001a0: a2eb 5ebe 71ba 7abe bd47 fabd 4e73 bb3d
000001b0: 5a8f 10be dd85 59bd 1a19 0b3e 5593 82bc
000001c0: cc41 fcbd 5333 ef3a 0791 c03b 4083 393e
000001d0: 1e63 c13d ab34 0f3e 4c60 a23d 22a6 01bd
000001e0: 9313 b6bd 4a21 fabb 4ebb 71bd cdd6 23be
000001f0: 50c5 783d 22ca c33c 559b a43d 3c77 23bc

fc.2.weight f4 [64, 128]
-0.008610993 -0.11870924 -0.37055933 0.08308253 -0.032124944 0.3087658 0.33519408 0.026057603
0.105025664 0.079120904 0.026272796 0.10459299 -0.08003003 -0.08806051 -0.30242887 0.03106729
0.020410035 -0.080011435 -0.109550424 -0.14103025 0.14675513 -0.16519319 -0.04903715 -0.045491893
0.06601557 0.1624338 -0.047934502 0.119724005 -0.063039914 0.13192695 -0.26388127 0.21129872
0.049588136 -0.017212985 0.049979746 -0.023464875 -0.049079303 0.024868505 -0.029123528 0.31802708
0.061101176 -0.056814406 0.11682297 -0.08644373 0.0925633 -0.15485673 0.046808217 -0.22642773
0.0020571507 -0.34581065 -0.16816004 -0.21968977 0.058315475 -0.30966362 0.0019881586 0.17223445
0.1238648 0.008414615 0.39545584 0.22737294 0.10675548 0.09666348 0.034256727 -0.047619805
-0.04630579 0.2755271 0.097891085 -0.37761894 0.10275632 0.031535048 0.09869878 -0.2604326
0.00230809 0.06343324 -0.16909821 0.58936185 -0.099468395 -0.04633268 0.014926398 -0.055600867
-0.057992574 0.026267506 -0.110308126 -0.013155782 -0.09293005 0.0063907453 0.029364245 0.08371032
0.07673643 0.17081748 0.10749767 -0.015124229 -0.032414302 -0.09238514 -0.024438309 -0.12066483
-0.03134352 0.030846767 -0.10614762 -0.16954698 -0.020009315 0.043383032 -0.16910192 -0.07814053
-0.068074815 0.013491382 0.025668295 -0.04977403 -0.36333272 0.0007330707 -0.060608793 -0.076999255
-0.17579806 0.2239831 -0.11487166 0.120491505 -0.16464911 -0.007492642 -0.21310319 0.0458203
0.05494343 -0.24195504 -0.015661187 0.0058309184 0.024123108 -0.014643977 0.017257461 0.2213049
0.061731115 0.19670776 -0.007627436 0.03860029 -0.015720565 -0.24345648 -0.05726799 -0.14457962
0.1359018 -0.08399235 -0.014512659 0.10674686 -0.14576499 -0.10926018 0.041503143 -0.048713587
-0.051501926 -0.20174888 0.03559349 -0.11150347 0.10836325 0.02232722 -0.008209979 0.10248772
-0.078859255 -0.16744365 0.08252174 0.22035529 -0.1096963 -0.021313317 0.14068623 -0.40044928
0.07048752 -0.14308077 -0.01402789 -0.23329175 0.01291432 0.13791673 -0.24495193 -0.1736319
-0.124112375 -0.06521035 -0.13645245 -0.19786729 -0.026073897 -0.10210482 -0.10043708 0.13281186
0.050052263 -0.055563677 0.21826582 -0.11140255 0.105996944 -0.65208155 -0.09991015 0.07169303
-0.31568387 -0.16498782 -0.26403943 -0.17986977 -0.0011343753 -0.09469551 -0.0050525847 0.021172414
0.43875977 0.22263244 0.023244804 0.10562955 -0.11986266 0.1660368 0.011791062 -0.21510606
-0.035986003 -0.02138166 0.02995187 -0.13677469 0.011703523 -0.071548924 -0.026908347 0.083219975
0.07749853 0.07178012 -0.29822546 0.07146069 0.28691602 -0.027399523 0.045482833 -0.0483824
-0.022071132 0.04731439 -0.032790486 0.065102644 -0.0699636 -0.0074399705 -0.067373335 -0.045871798
-0.05422371 0.29959652 0.2755222 -0.16956823 0.06677998 0.06353054 -0.062086523 0.16323428
0.06696827 -0.16219525 -0.027524034 -0.062415786 -0.08988373 -0.26865286 0.00045767424 0.5320734
-0.23659883 -0.20864002 -0.03669263 -0.12525216 -0.008330447 0.0056435727 -0.09622883 -0.16123122
-0.016995339 0.27612603 -0.018763565 0.07461522 -0.0075611467 -0.14240882 0.08466841 -0.1896257
00000000: 1f15 0dbc d41d f3bd f4b9 bdbe 2c27 aa3d
00000010: 7295 03bd 8d16 9e3e 8f9e ab3e c176 d53c
00000020: b217 d73d 240a a23d 0c3a d73c d934 d63d
00000030: c9e6 a3bd 1259 b4bd f5d7 9abe d480 fe3c
00000040: f232 a73c 09dd a3bd f95b e0bd 3c6a 10be
00000050: fa46 163e 6728 29be 2edb 48bd b555 3abd
00000060: 2c33 873d 0c55 263e f856 44bd dc31 f53d
00000070: 121b 81bd dc17 073e 721b 87be b15e 583e
00000080: ee1c 4b3d 3f02 8dbc 90b7 4c3d 6939 c0bc
00000090: 6107 49bd 09b9 cb3c 7794 eebc 72d4 a23e
000000a0: 3a45 7a3d 39b6 68bd e240 ef3d 6909 b1bd
000000b0: d491 bd3d c392 1ebe f9b9 3f3d acdc 67be
000000c0: 43d1 063b 180e b1be 2532 2cbe 5bf6 60be
000000d0: 35dc 6e3d 3b8c 9ebe c44b 023b 3a5e 303e
000000e0: d4ac fd3d 74dd 093c 3079 ca3e 74d4 683e
000000f0: 9ea2 da3d 81f7 c53d c850 0c3d fc0c 43bd
00000100: 24ab 3dbd e311 8d3e 1f7b c83d 4557 c1be
00000110: e871 d23d e52a 013d 9622 ca3d 6c57 85be
00000120: 5343 173b 49e9 813d 1528 2dbe 6be0 163f
00000130: 16b6 cbbd 56c7 3dbd da8d 743c bcbd 63bd
00000140: 9f89 6dbd f42e d73c 3ae9 e1bd 598b 57bc
00000150: 1c52 bebd 7569 d13b 498d f03c 5170 ab3d
00000160: fd27 9d3d c7ea 2e3e bd27 dc3d 9dcb 77bc
00000170: dcc4 04bd 6c34 bdbd d932 c8bc 1f1f f7bd
00000180: 1062 00bd 5cb2 fc3c ec63 d9bd b99d 2dbe
00000190: 93ea a3bc 68b2 313d 0e29 2dbe 2408 a0bd
000001a0: cf6a 8bbd f50a 5d3c 5146 d23c dadf 4bbd
000001b0: bf06 babe 8b2b 403a ed40 78bd c9b1 9dbd
000001c0: 6804 34be d35b 653e d541 ebbd 40c4 f63d
000001d0: c799 28be d684 f5bb b937 5abe 11ae 3b3d
000001e0: 5d0c 613d 10c3 77be e44b 80bc 4a11 bf3b
000001f0: d39d c53c 4bed 6fbc 855f 8d3c c09d 623e
00000200: c4d9 7c3d c26d 493e 92ef f9bb 561b 1e3d
00000210: 6ac8 80bc a84c 79be d791 6abd ae0c 14be
00000220: d729 0b3e 2e04 acbd 81c6 6dbc 199e da3d
00000230: 6b43 15be cdc3 dfbd 33ff 293d e687 47bd
00000240: aff3 52bd 4297 4ebe 7bca 113d ee5b e4bd
00000250: 8ded dd3d 93e7 b63c 2683 06bc 15e5 d13d
00000260: f680 a1bd 5976 2bbe 2801 a93d d1a4 613e
00000270: 74a8 e0bd 4499 aebc 0d10 103e b007 cdbe
00000280: c35b 903d c483 12be 3cd5 65bc 08e4 6ebe
00000290: 9696 533c 0b3a 0d3e aed4 7abe 90cc 31be
000002a0: a12e febd 018d 85bd 31ba 0bbe b99d 4abe
000002b0: ed98 d5bc 551c d1bd f5b1 cdbd d5ff 073e
000002c0: 9a03 4d3d bd96 63bd 1381 5f3e 0527 e4bd
000002d0: ed14 d93d d1ee 26bf b19d ccbd ccd3 923d
000002e0: 51a1 a1be 91f2 28be 2d30 87be c82f 38be
000002f0: 52af 94ba b8ef c1bd 2790 a5bb c571 ad3c
00000300: 1fa5 e03e c2f9 633e e36b be3c 4e54 d83d
00000310: 8e7a f5bd 8d05 2a3e 4c2f 413c c344 5cbe
00000320: 0f66 13bd 9728 afbc a05d f53c aa0e 0cbe
00000330: 22c0 3f3c 3e88 92bd e56e dcbc 3c6f aa3d
00000340: 8db7 9e3d 7501 933d 02b1 98be fb59 923d
00000350: a8e6 923e f774 e0bc 354c 3a3d a02c 46bd
00000360: 85ce b4bc bccc 413d 514f 06bd 8954 853d
00000370: 1349 8fbd ffca f3bb 08fb 89bd 11e4 3bbd
00000380: ae19 5ebd b764 993e 3f11 8d3e 4ba3 2dbe
00000390: f1c3 883d 4d1c 823d 704e 7ebd e326 273e
000003a0: a926 893d 8316 26be 157a e1bc b2a7 7fbd
000003b0: f614 b8bd de8c 89be fff3 ef39 f635 083f
000003c0: f746 72be bba5 55be 034b 16bd 1a42 00be
000003d0: 6d7c 08bc b8ed b83b 9f13 c5bd cc19 25be
000003e0: cf39 8bbc 6460 8d3e 0cb6 99bc ddcf 983d
000003f0: 7fc3 f7bb 9ed3 11be a266 ad3d 3d2d 42be

fc.2.bias f4 [64]
0.0071948403 0.0011240033 0.3030142 -0.057882916 -0.05623221 -0.10286987 -0.07233901 0.05626343
-0.052120984 -0.119101584 0.0010086256 0.10837377 -0.008933707 -0.08537716 0.0029550844 0.0019915276
-0.003256523 -0.08410952 -0.1526972 -0.10924962 -0.04893475 0.037102643 -0.10094043 0.1088538
0.005371438 0.081971124 0.3819309 0.0020552336 0.05467613 -0.06361925 0.0029973115 0.10108952
-0.13540007 0.027548177 0.01901993 -0.09638611 0.0108819865 0.012338053 0.018476147 0.013410302
0.0056837923 0.0014350992 0.0052258302 0.020367993 0.23213777 0.024296168 -0.060607012 -0.102922775
0.21820182 -0.08904093 -0.1265761 -0.07771292 -0.16223133 0.052526914 0.0108257495 0.3099066
-0.0462287 0.07856211 0.12124559 -0.0054893335 0.02515273 -0.034972817 -0.045808922 -0.039455842
00000000: b2c2 eb3b 4b53 933a ad24 9b3e a316 6dbd
00000010: bf53 66bd 70ad d2bd 7a26 94bd 7b74 663d
00000020: d07c 55bd 88eb f3bd dc33 843a 11f3 dd3d
00000030: af5e 12bc 38da aebd 17aa 413b 4a84 023b
00000040: 646b 55bb 9d41 acbd a85c 1cbe 44be dfbd
00000050: ce6f 48bd f1f8 173d dbb9 cebd beee de3d
00000060: e302 b03b 7ae0 a73d 728c c33e 19b1 063b
00000070: 14f4 5f3d cf4a 82bd 8b6e 443b 0608 cf3d
00000080: 51a6 0abe b7ac e13c afcf 9b3c 1566 c5bd
00000090: 5c4a 323c 8c25 4a3c 4a5b 973c e2b6 5b3c
000000a0: 1b3f ba3b f019 bc3a 713d ab3b c7da a63c
000000b0: 86b5 6d3e c208 c73c 0f3f 78bd 2dc9 d2bd
000000c0: 4c70 5f3e 175b b6bd 2a9d 01be f427 9fbd
000000d0: f81f 26be 7626 573d 7c5e 313c 14ac 9e3e
000000e0: 4e5a 3dbd 2ce5 a03d 9c4f f83d dedf b3bb
000000f0: 190d ce3c a83f 0fbd 23a2 3bbd 739c 21bd

fc.4.weight f4 [4, 64]
0.2597031 0.10343352 0.14504233 0.23250556 -0.28512555 -0.23091914 -0.08300205 -0.09472207
-0.24423608 0.021416849 0.05541162 0.15368041 -0.015575972 0.24146762 0.107881255 0.31425887
-0.3660003 0.1578396 -0.036458343 0.08734933 -0.12563938 -0.01216979 -0.07343575 0.16686714
-0.5136316 -0.18247756 0.16662192 0.016692618 0.041939646 -0.26926488 0.05089355 0.29279208
-0.17322391 0.061774626 0.09192845 -0.38308936 -0.028122693 0.117142595 0.067926124 0.09644375
0.3708988 -0.039296083 -0.0064126425 0.13870223 0.048061453 0.023149563 -0.21107697 -0.08873344
0.1502934 -0.14009964 0.019763242 0.45986986 -0.22831877 0.15897982 0.048749886 0.14803933
0.17699069 0.056252953 0.20783356 0.21697235 0.075349234 0.06362964 0.32587633 0.33247563
0.20817597 0.36002257 0.113482855 0.119989805 -0.06385549 -0.19778456 0.038554255 0.07803752
0.042438414 0.32470426 0.16040635 0.1465471 -0.031250857 0.35840368 0.13562094 0.3435443
-0.14878054 0.005852051 0.42809305 -0.12848751 -0.040345855 -0.6754216 -0.053243462 0.20433451
-0.1171124 0.06297498 0.16894004 -0.012296371 0.041583452 0.052112296 -0.22188829 0.23626201
-0.28381807 -0.33024347 -0.20865567 0.29034162 -0.5776988 -0.16297439 0.18263137 0.043275964
0.47377142 -0.07937973 -0.20814842 0.12998813 0.13404359 -0.10042444 0.14467995 0.12730728
0.14760517 -0.101013154 -0.029788839 0.30964413 -0.26156867 0.31592092 0.11827225 0.10343627
0.24791247 0.067145005 0.10635577 0.17844091 0.14853576 0.07950476 0.22315621 0.2629626
0.28726083 -0.02956487 0.09821865 0.01014815 0.075702235 -0.054097462 -0.17783636 0.20073329
0.24450034 -0.08736284 -0.32747066 0.09535404 -0.41287142 -0.41506827 0.09986492 0.008155721
-0.21652402 0.14237753 0.32538182 -0.49631056 0.061669037 0.0071650683 -0.017895726 0.040295742
-0.04102809 0.2007589 0.18743527 0.22174107 -0.0033397682 -0.13229136 -0.030165266 0.09917906
-0.32617536 -0.26275188 0.064629 -0.36232352 0.18842079 0.42967412 0.33915365 0.32251456
0.3367998 -0.25516438 -0.28104013 0.16195248 0.113303795 -0.20003723 -0.10690711 -0.4329033
0.05259503 0.10905178 0.11850059 0.48684415 -0.30908865 0.5045401 -0.11963484 0.14716767
0.09576404 0.167335 0.11636742 0.24575664 -0.1831859 0.14524901 0.22842152 0.28931135
0.19707751 0.38290098 0.113404766 0.43992597 0.10662314 -0.35922143 -0.5005097 0.0054790517
-0.3022975 -0.17887437 0.20389748 0.10924179 0.08172646 -0.31554 0.2530747 0.26564768
-0.06464035 0.42191178 0.004670427 0.023135455 0.56475157 0.21438839 -0.14735751 0.11948853
-0.18396986 0.14321992 0.14727126 0.16086382 0.2034662 -0.0900687 -0.39972177 0.20229477
-0.48819044 0.039886467 -0.0755295 0.008737246 0.06898833 0.015019917 0.13346982 0.3047777
0.060414996 -0.051830698 -0.34550962 0.029071596 0.15565546 -0.3448987 0.038834523 -0.109057575
0.022650642 0.1085992 0.4994824 0.34348786 -0.091835245 -0.076921456 0.27575403 0.1604689
-0.14130896 0.046778247 0.14788257 -0.12270387 0.2470315 0.023925744 0.1902079 0.47186255
00000000: cef7 843e f4d4 d33d fa85 143e f015 6e3e
00000010: fafb 91be 1176 6cbe fbfc a9bd a5fd c1bd
00000020: 0619 7abe 6372 af3c 4bf7 623d 665e 1d3e
00000030: 5d32 7fbc 4a43 773e d9f0 dc3d 8ae6 a03e
00000040: 6464 bbbe b4a0 213e 5855 15bd 35e4 b23d
00000050: 9ca7 00be cd63 47bc 7c65 96bd 38df 2a3e
00000060: 5c7d 03bf 66db 3abe f09e 2a3e f5be 883c
00000070: e8c8 2b3d 16dd 89be c175 503d d8e8 953e
00000080: 9c61 31be 6407 7d3d fc44 bc3d 4a24 c4be
00000090: 9061 e6bc 75e8 ef3d da1c 8b3d 4d84 c53d
000000a0: 73e6 bd3e eef4 20bd 2521 d2bb f507 0e3e
000000b0: 16dc 443d 27a4 bd3c 9024 58be e1b9 b5bd
000000c0: 83e6 193e 4876 0fbe 86e6 a13c 1074 eb3e
000000d0: 65cc 69be 9bcb 223e f6ad 473d 9f97 173e
000000e0: 0c3d 353e 7f69 663d 52d2 543e 002e 5e3e
000000f0: b350 9a3d 4250 823d 43d9 a63e 3f3a aa3e
00000100: 152c 553e e154 b83e b369 e83d 37bd f53d
00000110: abc6 82bd 0988 4abe 11eb 1d3d 23d2 9f3d
00000120: e7d3 2d3d a33f a63e 9041 243e 7110 163e
00000130: e600 00bd b080 b73e 37e0 0a3e 0ae5 af3e
00000140: ed59 18be 90c2 bf3b 032f db3e 3b92 03be
00000150: b241 25bd 6ee8 2cbf d115 5abd 113d 513e
00000160: a0d8 efbd 07f9 803d 9efe 2c3e b876 49bc
00000170: 6953 2a3d b473 553d af36 63be abee 713e
00000180: 9a50 91be ac15 a9be d5a9 55be a8a7 943e
00000190: 12e4 13bf c2e2 26be b803 3b3e 2342 313d
000001a0: 2b92 f23e d791 a2bd dc24 55be 9c1b 053e
000001b0: b942 093e 54ab cdbd fb26 143e d75c 023e
000001c0: cf25 173e fcdf cebd b907 f4bc ad89 9e3e
000001d0: 54ec 85be 63c0 a13e b938 f23d 65d6 d33d
000001e0: c4dc 7d3e 5283 893d 0ed1 d93d 37b9 363e
000001f0: c219 183e 64d3 a23d 1083 643e 09a3 863e
00000200: da13 933e 0732 f2bc dc26 c93d 6d44 263c
00000210: c609 9b3d 4d95 5dbd bc1a 36be 078d 4d3e
00000220: 4c5e 7a3e 4aeb b2bd 3caa a7be fb48 c33d
00000230: e263 d3be d483 d4be fb85 cc3d 939f 053c
00000240: 79b8 5dbe 6acb 113e 7298 a63e 6b1c febe
00000250: ac98 7c3d f3c8 ea3b 0f9a 92bc 260d 253d
00000260: 120d 28bd be93 4d3e 08ef 3f3e 1710 633e
00000270: 03e0 5abb 6377 07be 261d f7bc 641e cb3d
00000280: 7500 a7be 6a87 86be 365c 843d 7882 b9be
00000290: 61f1 403e 3ffe db3e 8ca5 ad3e a120 a53e
000002a0: 0671 ac3e e8a4 82be 7ee4 8fbe dfd6 253e
000002b0: d20b e83d 8fd6 4cbe 1df2 dabd 80a5 ddbe
000002c0: e36d 573d 8a56 df3d 70b0 f23d a343 f93e
000002d0: de40 9ebe 8a29 013f 1c03 f5bd 1fb3 163e
000002e0: f01f c43d de59 2b3e 0b52 ee3d a1a7 7b3e
000002f0: 1695 3bbe 28bc 143e 55e7 693e 9e20 943e
00000300: b0ce 493e 990b c43e c240 e83d fa3d e13e
00000310: 3c5d da3d dfeb b7be 6721 00bf 9e89 b33b
00000320: bdc6 9abe d82a 37be 80ca 503e 29ba df3d
00000330: 3460 a73d 758e a1be 0293 813e f902 883e
00000340: 2962 84bd d204 d83e 620a 993b 9186 bd3c
00000350: 8f93 103f a188 5b3e e3e4 16be 67b6 f43d
00000360: 9862 3cbe 3ea8 123e 47ce 163e 7cb9 243e
00000370: 7259 503e f075 b8bd 55a8 ccbe 5c26 4f3e
00000380: 19f4 f9be fe5f 233d 36af 9abd aa26 0f3c
00000390: c149 8d3d 1916 763c 50ac 083e d30b 9c3e
000003a0: b775 773d 6d4c 54bd a3e6 b0be 8e27 ee3c
000003b0: 2564 1f3e 9096 b0be f310 1f3d 9459 dfbd
000003c0: d78d b93c 4269 de3d 28bc ff3e a4dd af3e
000003d0: 1e14 bcbd ff88 9dbd a22f 8d3e f651 243e
000003e0: 4cb3 10be 8c9a 3f3d 876e 173e 2b4c fbbd
000003f0: d3f5 7c3e ecff c33c dcc5 423e f897 f13e

fc.4.bias f4 [4]
0.17856751 0.18252839 0.23200715 0.2394398
00000000: 67da 363e b9e8 3a3e 4893 6d3e b52f 753e
